…
        "              metrics=['categorical_accuracy'])\n",
        "model.summary()"
      ],
      "execution_count": 12,
      "outputs": [
        {
          "output_type": "stream",
          "text": [
            "__________________________________________________________________________________________________\n",
            "Layer (type)                    Output Shape         Param #     Connected to                     \n",
            "==================================================================================================\n",
            "Input (InputLayer)              (None, 512)          0                                            \n",
            "__________________________________________________________________________________________________\n",
            "dropout_2 (Dropout)             (None, 512)          0           Input[0][0]                      \n",
            "__________________________________________________________________________________________________\n",
            "Midway (Dense)                  (None, 2048)         1050624     dropout_2[0][0]                  \n",
            "__________________________________________________________________________________________________\n",
            "Flatout00 (Dense)               (None, 41)           84009       Midway[0][0]                     \n",
            "__________________________________________________________________________________________________\n",
            "Flatout01 (Dense)               (None, 41)           84009       Midway[0][0]                     \n",
            "__________________________________________________________________________________________________\n",
            "Flatout02 (Dense)               (None, 41)           84009       Midway[0][0]                     \n",
            "__________________________________________________________________________________________________\n",
            "Flatout03 (Dense)               (None, 41)           84009       Midway[0][0]                     \n",
            "__________________________________________________________________________________________________\n",
            "Flatout04 (Dense)               (None, 41)           84009       Midway[0][0]                     \n",
            "__________________________________________________________________________________________________\n",
            "Flatout05 (Dense)               (None, 41)           84009       Midway[0][0]                     \n",
            "__________________________________________________________________________________________________\n",
            "Flatout06 (Dense)               (None, 41)           84009       Midway[0][0]                     \n",
            "__________________________________________________________________________________________________\n",
            "Flatout07 (Dense)               (None, 41)           84009       Midway[0][0]                     \n",
            "__________________________________________________________________________________________________\n",
            "Flatout08 (Dense)               (None, 41)           84009       Midway[0][0]                     \n",
            "__________________________________________________________________________________________________\n",
            "Flatout09 (Dense)               (None, 41)           84009       Midway[0][0]                     \n",
            "__________________________________________________________________________________________________\n",
            "Flatout10 (Dense)               (None, 41)           84009       Midway[0][0]                     \n",
            "__________________________________________________________________________________________________\n",
            "Flatout11 (Dense)               (None, 41)           84009       Midway[0][0]                     \n",
            "__________________________________________________________________________________________________\n",
            "Flatout12 (Dense)               (None, 41)           84009       Midway[0][0]                     \n",
            "__________________________________________________________________________________________________\n",
            "Flatout13 (Dense)               (None, 41)           84009       Midway[0][0]                     \n",
            "__________________________________________________________________________________________________\n",
            "Flatout14 (Dense)               (None, 41)           84009       Midway[0][0]                     \n",
            "__________________________________________________________________________________________________\n",
            "Flatout15 (Dense)               (None, 41)           84009       Midway[0][0]                     \n",
            "__________________________________________________________________________________________________\n",
            "Flatout16 (Dense)               (None, 41)           84009       Midway[0][0]                     \n",
            "__________________________________________________________________________________________________\n",
            "Flatout17 (Dense)               (None, 41)           84009       Midway[0][0]                     \n",
            "__________________________________________________________________________________________________\n",
            "Flatout18 (Dense)               (None, 41)           84009       Midway[0][0]                     \n",
            "__________________________________________________________________________________________________\n",
            "Flatout19 (Dense)               (None, 41)           84009       Midway[0][0]                     \n",
            "__________________________________________________________________________________________________\n",
            "Flatout20 (Dense)               (None, 41)           84009       Midway[0][0]                     \n",
            "__________________________________________________________________________________________________\n",
            "Flatout21 (Dense)               (None, 41)           84009       Midway[0][0]                     \n",
            "__________________________________________________________________________________________________\n",
            "Flatout22 (Dense)               (None, 41)           84009       Midway[0][0]                     \n",
            "__________________________________________________________________________________________________\n",
            "Flatout23 (Dense)               (None, 41)           84009       Midway[0][0]                     \n",
            "__________________________________________________________________________________________________\n",
            "Flatout24 (Dense)               (None, 41)           84009       Midway[0][0]                     \n",
            "__________________________________________________________________________________________________\n",
            "Flatout25 (Dense)               (None, 41)           84009       Midway[0][0]                     \n",
            "__________________________________________________________________________________________________\n",
            "Flatout26 (Dense)               (None, 41)           84009       Midway[0][0]                     \n",
            "__________________________________________________________________________________________________\n",
            "Flatout27 (Dense)               (None, 41)           84009       Midway[0][0]                     \n",
            "__________________________________________________________________________________________________\n",
            "Flatout28 (Dense)               (None, 41)           84009       Midway[0][0]                     \n",
            "__________________________________________________________________________________________________\n",
            "Flatout29 (Dense)               (None, 41)           84009       Midway[0][0]                     \n",
            "__________________________________________________________________________________________________\n",
            "Flatout30 (Dense)               (None, 41)           84009       Midway[0][0]                     \n",
            "__________________________________________________________________________________________________\n",
            "Flatout31 (Dense)               (None, 41)           84009       Midway[0][0]                     \n",
            "__________________________________________________________________________________________________\n",
            "Flatout32 (Dense)               (None, 41)           84009       Midway[0][0]                     \n",
            "__________________________________________________________________________________________________\n",
            "Flatout33 (Dense)               (None, 41)           84009       Midway[0][0]                     \n",
            "__________________________________________________________________________________________________\n",
            "Flatout34 (Dense)               (None, 41)           84009       Midway[0][0]                     \n",
            "__________________________________________________________________________________________________\n",
            "Flatout35 (Dense)               (None, 41)           84009       Midway[0][0]                     \n",
            "__________________________________________________________________________________________________\n",
            "Flatout36 (Dense)               (None, 41)           84009       Midway[0][0]                     \n",
            "__________________________________________________________________________________________________\n",
            "Flatout37 (Dense)               (None, 41)           84009       Midway[0][0]                     \n",
            "__________________________________________________________________________________________________\n",
            "Flatout38 (Dense)               (None, 41)           84009       Midway[0][0]                     \n",
            "__________________________________________________________________________________________________\n",
            "Flatout39 (Dense)               (None, 41)           84009       Midway[0][0]                     \n",
            "==================================================================================================\n",
            "Total params: 4,410,984\n",
            "Trainable params: 4,410,984\n",
            "Non-trainable params: 0\n",
            "__________________________________________________________________________________________________\n"
…
